diabeats/diabeats.tflite (tflite, 116300 bytes, 12 tensors)

sequential/dense/BiasAdd/ReadVariableOp f4 [100]
00000000: 5e17 29bd 0617 0dbd 27e0 793c bd3d e63c
00000010: cb7b 1f3d a095 263c d302 bc3c 52c8 223d
00000020: 0000 0000 acd6 263c 0000 0000 0000 0000
00000030: ac52 2bbd 9b85 1a3c 4b73 063d 0c90 ab3c
00000040: b51a 46bc 445c f3bc 123a b93c aefe 183d
00000050: 0464 403d 0458 343c 69aa 04bd a70f 2a3d
00000060: 0000 0000 da2f 02bd 6742 903d 8bfb 05bc
00000070: 14c2 52bd 7840 27bd 4d13 9dbb 5285 e6bc
00000080: 0000 0000 0000 0000 364c cabb 805b 873b
00000090: 96ca f33c a9d9 14bd 7145 c3bb a581 60bc
000000a0: e629 ea3b 8c09 4cbd 0000 0000 39b5 173c
000000b0: 2630 9e3d 565f 29bd cfde 963c 3c8a d83c
000000c0: 3ad3 41bd 9398 28bc 8b10 083d a1c3 1dbd
000000d0: 226b 723d 5bb2 2cbd f1b2 2fbd 7688 ddbb
000000e0: 1fa8 273d 8a17 c3bc a4ca a2bc 2e67 05bc
000000f0: 4076 4a3d 0000 0000 4578 c3bc e5f8 19bd
00000100: 0000 0000 4b4a b3bc 504b bfbc 5248 c13c
00000110: 73b2 f23c 4603 14bd 8a30 2bbd eec3 d0bc
00000120: 0000 0000 c18b d23c 0000 0000 8f81 1abd
00000130: d269 21bc 06e4 86bc 1f66 ca3c d2ea 8d3c
00000140: c353 1dbc e7a3 d13c 274f b9bc 9651 0ebd
00000150: 7352 19bd 0000 0000 cce4 b63c 0e96 533d
00000160: 432c fabb 2982 443c f19f 52bc 0000 0000
00000170: 9f9e 6abc 884b ca3c e0a6 c23c f6bb 7d3d
00000180: 0000 0000 e2d2 843c 3d43 0c3d 256a 1dbc
-0.04128205 -0.034445785 0.015251196 0.028105611 0.038936418 0.010167509 0.022950565 0.03974182
0.0 0.010183018 0.0 0.0 -0.04182689 0.009431268 0.032824796 0.02094271
-0.012091328 -0.029707082 0.022610698 0.037352256 0.046970382 0.011007313 -0.03238908 0.041518833
0.0 -0.031783916 0.07043915 -0.008177648 -0.05145462 -0.040832967 -0.0047935606 -0.028139744
0.0 0.0 -0.006173636 0.0041307807 0.029759686 -0.03634039 -0.005959206 -0.013702785
0.007146108 -0.049813792 0.0 0.009259515 0.07724027 -0.041350685 0.01841679 0.026433103
-0.047320582 -0.010290283 0.0332189 -0.038516644 0.0591842 -0.04216228 -0.04289526 -0.006760652
0.040931817 -0.023814935 -0.019872017 -0.008142276 0.04942918 0.0 -0.02386106 -0.03759088
0.0 -0.021886012 -0.023351341 0.023594055 0.029626107 -0.036135934 -0.041794337 -0.025484052
0.0 0.025701405 0.0 -0.037721213 -0.00985189 -0.016466152 0.024706898 0.017323885
-0.00960249 0.02559085 -0.02262075 -0.034745775 -0.037432145 0.0 0.022325896 0.051656775
-0.007634671 0.011993923 -0.012855516 0.0 -0.014320045 0.02469422 0.023761213 0.06194683
0.0 0.016213838 0.03424381 -0.009607826

sequential/dense_5/BiasAdd/ReadVariableOp f4 [2]
00000000: d02a 5d3b c82a 5dbb
0.0033747442 -0.0033747423

sequential/dense_4/BiasAdd/ReadVariableOp f4 [40]
00000000: 3628 a4bc 0471 b9bc 6c4f 623d 82ff 683d
00000010: dfb3 8fbc 6ad8 a53d a895 5abc b645 92bc
00000020: 5c58 363d a9fa 3a3d 36ff 3f3d 056a ab3c
00000030: 27cf 6a3d 2d25 e53c 46c1 343c ee8d 003d
00000040: de45 4f39 c295 76ba bcdb de3c e3e5 643c
00000050: cba0 f13c e7aa 073d 514d 35ba 2352 a4bc
00000060: e0d9 273d 53e1 8c3d af7d 34bc 96cf fe3c
00000070: 5794 263d ce2f 3c3d 8d66 9cbc 4957 9b3c
00000080: edaa 1e3c a385 393d 2c01 fd3c 0167 3b3d
00000090: 93f5 a03c 0000 0000 4bd9 843c 0000 0000
-0.020038705 -0.022636898 0.055251524 0.056884296 -0.017541824 0.08097918 -0.013341345 -0.017855506
0.04451786 0.045649204 0.046874247 0.020924577 0.057326462 0.027971828 0.011032408 0.031385355
0.00019767086 -0.0009406471 0.027204387 0.013970825 0.029495617 0.03312197 -0.0006916123 -0.020058697
0.040979266 0.06878915 -0.011016293 0.031104844 0.04066881 0.045944028 -0.019091869 0.01896252
0.009684307 0.04529346 0.030884348 0.04575253 0.019648349 0.0 0.016216895 0.0

sequential/dense_3/BiasAdd/ReadVariableOp f4 [50]
00000000: 8e9a c0bc 9d11 b23c ca4a 0c3d 1a91 26bc
00000010: 6f38 0ebc c39d 42bc 0000 0000 e5cb f8bb
00000020: 46fc 80bb 6be4 dabc e48f 81bc 91bc febb
00000030: f998 4dbc c8b9 96bc e8fd 6cbc 1de3 ed3c
00000040: 2b06 c3bc 0339 e93b cb61 1e3d d36f 1d3d
00000050: 22c5 033d daec 46ba 9926 313c e07b 9a3c
00000060: 60ff 943d 6c92 223d 1142 4fbc 8a77 f73c
00000070: 99dd 8ebc f56c 6abb 0000 0000 0282 80bc
00000080: 9eff ec3c 258b a13c c986 65b8 78ad a83c
00000090: a87b a9ba a467 5cbc 9181 383d 2049 0c3d
000000a0: 27d3 883d 83d4 30ba 0832 9dbc 67f4 d53c
000000b0: 6bf2 40bc 7aed 3d3b d41e 093d b233 88bc
000000c0: e6f5 013d aa49 64bc
-0.023511197 0.021736914 0.034251012 -0.010166431 -0.008680447 -0.011878434 0.0 -0.0075926655
-0.0039363233 -0.026720246 -0.015815683 -0.0077739437 -0.012548679 -0.018399134 -0.014464833 0.02903896
-0.023806652 0.007117392 0.03866748 0.038436722 0.032170422 -0.0007588394 0.010812425 0.018857896
0.072752714 0.03969042 -0.012650029 0.030208368 -0.01743965 -0.003577051 0.0 -0.015686993
0.028930482 0.01971967 -5.4723383e-05 0.020590529 -0.0012930529 -0.013452444 0.04504544 0.034249425
0.06680899 -0.0006745534 -0.019188896 0.026117517 -0.011776547 0.0028980658 0.033476666 -0.016626213
0.031728648 -0.0139335785

sequential/dense_2/BiasAdd/ReadVariableOp f4 [100]
00000000: 46f3 9cbb b032 c3ba cec6 543a a8ca 75bb
00000010: 94b4 c4bb 574c 80bc 40d8 1a3d 8342 393d
00000020: a453 d5bb a487 2c3d 0127 7f3c 5ff9 1c3d
00000030: 5600 e13b cf5c 103d 98b6 a0bc 1562 9ebc
00000040: 02fd 263d edb0 163d d07f 8fbc 2616 7cbb
00000050: 61fc 8abb f99e a4bc dc97 643d 100c 103d
00000060: 5505 2a3d e394 b83c 44e2 163d 0894 033d
00000070: 6baa a7bb f230 4cbc 1519 e2bc f3d6 3b3d
00000080: b19b 2cbd 7812 c03c 8dd1 10bd 59d1 253c
00000090: 42c0 1f3d 8a6d 083d 875d 2f3d 4b72 9a3b
000000a0: 1850 0f3d ec25 f5bb 0349 7f3c 0546 0cbd
000000b0: 23ac 193d 39b4 36bc 4585 033d 8f9d c3bc
000000c0: 559a de3c c220 4dbc 08a3 4a3d bf7b 01bd
000000d0: 0000 0000 c44f a6bc 5056 12bd 5d92 46bc
000000e0: 7755 4c3d 7f1b 6aba 75f2 9ebc ccdf 50bb
000000f0: fc47 153d b545 cbbc 4a98 593a a136 0d3d
00000100: c230 80bc ee3a e03c 98b2 1bbc 6168 b23c
00000110: 6657 de3c 1c55 883c acc2 3dbc cbe7 89bc
00000120: 7932 343d d008 edb7 2987 993b 193d 973a
00000130: c162 8fbc 474c 3d3d 1b8f 5fba 9b7e f0bc
00000140: b133 b0bc 574e 9bbc d6e7 bd3c bde4 babc
00000150: d5c7 89bc 6bfa 033d 4b03 a0bc a6c7 943c
00000160: f8e7 fa3b e96b 943c d13b 993c 3bec 2e3d
00000170: c6af 283d b5c9 fc3c 8f84 213d 5d7e d4bc
00000180: a7f8 4a3d f5b9 343d 6f65 023d 3db1 4e3d
-0.0047897426 -0.0014892425 0.00081167824 -0.0037504826 -0.006002972 -0.015661402 0.03780389 0.045229446
-0.006510215 0.042121544 0.015573264 0.038323756 0.006866495 0.03524476 -0.019618317 -0.019333879
0.04076863 0.036789823 -0.017517 -0.003846535 -0.0042415117 -0.020095335 0.055808887 0.035167754
0.04150899 0.022531932 0.036836877 0.032123595 -0.005116751 -0.012462841 -0.02759985 0.04585929
-0.042140666 0.023446307 -0.035356093 0.010120713 0.03900171 0.03330759 0.042813804 0.004713332
0.034988493 -0.0074813273 0.015581372 -0.034246463 0.037517678 -0.011151367 0.032109518 -0.02387884
0.0271732 -0.012520017 0.049471885 -0.031612154 0.0 -0.020301707 -0.035726845 -0.012119857
0.049886193 -0.0008930489 -0.019402722 -0.0031871675 0.036445603 -0.024813512 0.0008300586 0.034475926
-0.01564825 0.02737185 -0.009503029 0.021778287 0.027141284 0.016642146 -0.011582058 -0.01683416
0.043993447 -2.8256705e-05 0.004685302 0.0011538594 -0.017503144 0.046215322 -0.0008528099 -0.029357245
-0.021509023 -0.018958254 0.023181837 -0.022814149 -0.01681892 0.03222124 -0.01953282 0.018161606
0.0076570474 0.018117862 0.01870528 0.042705756 0.041183256 0.0308579 0.03943306 -0.025939161
0.04955354 0.044122655 0.031835016 0.050461996

sequential/dense_1/BiasAdd/ReadVariableOp f4 [100]
00000000: 8fe7 19bd 1f17 3bbd e89b efbc ba9f 1ebd
00000010: 26b5 0e3d dc09 00bb 0aef 59bb c113 373d
00000020: 1e60 d53c 7959 c4bb 0763 9dbc b462 16bd
00000030: 1ee5 6d3c ad71 733c e03a 89bc f103 17bd
00000040: 6331 4f3d 2252 c83c a730 263d b7a7 e4bc
00000050: 12fa fbbc 477c 593b 7366 c4bc 8f24 95bc
00000060: 49ee aabb 8ee1 5ebc 0aa5 98bc dd75 b03c
00000070: 6944 7abb 0b75 f8bb ad3e 5c3c d0f6 e7bb
00000080: a176 68bc 1390 d43c eeea 7fbc b1a1 473d
00000090: a420 9b3c e61d b9bc 8e7b 113d a28b 18bd
000000a0: 2a7a e8bb b001 4f3c b313 90bc 78b1 93bc
000000b0: f551 ffbc 6a6a 173c 5569 16bd 832d 10bd
000000c0: 90cb 163d ce2b 483d 442d 083d aa95 8dba
000000d0: 28fd d0bb 37d1 423d a2af fc3c dbb3 39bd
000000e0: ed96 4e3d 3725 b4bc 51e1 e6bc 8134 92bc
000000f0: 5553 f03c cdfd b3bc 93d2 e0bb c81d f13a
00000100: 3477 91bc 1750 24bd 9b05 47bb 2c33 353d
00000110: 9143 a4bc 0294 e1bc e44a e3bc 38ec bfbb
00000120: 73ab 0bbd 4f0f d03c 0000 0000 83b2 0a3d
00000130: cfc2 243d 5fb5 c9bc 3327 0cbd 0000 0000
00000140: e31a 053d c2fc 023d 2e0a debc 813a 323d
00000150: d118 0abb 5517 d1ba 815a 373d a8a0 14bd
00000160: 0a0d 72bc 0000 0000 3555 89bc e2ab 88bb
00000170: b79f 973c e8c7 263d c221 233d eed8 993c
00000180: e0ac 7c3d b0d6 11bd 0000 0000 853a 0bbd
-0.037574347 -0.045676347 -0.029249147 -0.038726546 0.034840725 -0.0019537127 -0.003325405 0.044696573
0.026046809 -0.0059921113 -0.019212259 -0.036715224 0.014519958 0.014858645 -0.016751707 -0.036868993
0.05058421 0.024453226 0.040573742 -0.027912004 -0.030758891 0.0033185647 -0.023974633 -0.018205909
-0.005216394 -0.013603581 -0.018633384 0.021540577 -0.0038187748 -0.007582312 0.013442677 -0.007078983
-0.01418844 0.025947606 -0.015619976 0.048738185 0.018936463 -0.022597264 0.03551822 -0.03724254
-0.007094641 0.01263468 -0.017587518 -0.01802896 -0.03116701 0.00924168 -0.036721546 -0.035199653
0.036815226 0.0488699 0.033246294 -0.001080205 -0.006377835 0.047562804 0.030845467 -0.04533754
0.050436903 -0.021990402 -0.028183611 -0.017847301 0.02933661 -0.021971608 -0.00686104 0.0018395716
-0.017757036 -0.040115442 -0.0030368331 0.044238254 -0.02005175 -0.027536396 -0.027745672 -0.005857017
-0.034099054 0.025397925 0.0 0.03386165 0.040224846 -0.024622617 -0.03421707 0.0
0.032496344 0.03197933 -0.027104463 0.043512825 -0.002107192 -0.0015952388 0.044764046 -0.036286026
-0.014773617 0.0 -0.016764263 -0.0041708807 0.018508775 0.04071799 0.039827116 0.018780198
0.061688304 -0.035605133 0.0 -0.033991355

sequential/dense/MatMul f4 [100, 8]
00000000: 87e4 03be 08bb 293e 0b67 ba3d 08b5 47be
00000010: 22a9 223e 9b8d 09be fff6 16be 9543 6f3d
00000020: fcdf d7bd 7af5 063e 2dc0 373e 9c5a 293e
00000030: 9faa bc3d 1f1a 413e 1a09 853e 9576 03bd
00000040: 42c9 d7bd 4da1 5a3d 6531 2d3c 0323 8fbe
00000050: 5829 49be c5bf 9b3d 39a4 a7be a9f4 27be
00000060: a652 573e ed52 4abd df03 493e e516 863e
00000070: 47ae 2dbe bbf7 45be 163c 55be 7853 073e
00000080: 42e0 e63d 5fe8 2a3e b42b 2bbd 015c 3cbe
00000090: 9173 80be b2dc 46be 61f5 a9bd 502b 5dbe
000000a0: 18bb 8cbe 05c6 b23d e18b b13d 6975 843d
000000b0: d04f 1c3e c15a b43d a374 3f3e 5a23 1a3d
000000c0: 4bce 4ebe b98c 593e 95e0 3d3e 4074 9d3d
000000d0: 67a3 5bbd 3be7 e7bc dffe abbd 33db 23be
000000e0: 9707 493e 4b44 38bd 1ed1 383d 7922 54be
000000f0: a689 323c 5bb4 8ebd 308c 513e bdcd 26bc
00000100: 0693 c5bd b4e5 6bbe 3cba 65be 6059 b33b
00000110: 6d5a 533e fc14 303d dcb0 2e3d 7062 0cbe
00000120: cead 9b3d e3d3 a2bd 3118 82be dcec 28bd
00000130: d541 49be 7696 863c bb8e 12bd 85af 6b3e
00000140: a077 173c d84e 37bd 5bef 5ebe 87e6 573e
00000150: 8070 05bd 04d1 71bd ea83 15be c45b aebd
00000160: 1db1 50be 5ae9 1cbe 5485 16be 6646 92bd
00000170: 49fd 16be 583a ba3c 6560 5bbe 5ab9 b5bd
00000180: 6ebd 3f3e eb99 803e c909 653d bde0 f3bd
00000190: 3696 89bd f069 40be 94c8 893d 4e44 9abd
000001a0: c0b9 173e f864 38be a7d0 0d3e b267 77be
000001b0: 2419 c0be 5d01 e83d d705 8f3d 753b 233e
000001c0: a9bd 8b3e 1829 bebd 3d88 31be fb46 3bbd
000001d0: 21ce b4be fb4b 1f3d b783 64be 6949 4c3d
000001e0: f714 3fbe c79a 5a3d 09a7 3f3e 6ca7 97be
000001f0: 930c 0f3e d845 3cbd 7f3e 7d3d c8cd bcbd
00000200: 6777 433e 93cf 8bbd 1b5d 073e 50e5 82bc
00000210: f37e 8fbd 9183 f03d 9b04 5cbe 4a39 65bd
00000220: 10cd d93d 46ba 213d 4e7b f8bd c60c 003e
00000230: 445f 383e 901c 1e3d 8005 4f3e 0208 153e
00000240: 2063 183e a7f4 eebd e3cf 18be dac8 663e
00000250: 1961 f7bd 7199 bd3d 8ae0 76bd 51f6 2b3e
00000260: 19a5 023d 0ed2 613c 1605 593e 1c31 0abe
00000270: b49b fd3d 418f 46be 3606 10bd 6222 8fbd
00000280: 86bb 3f3d 078e 50be 8f2c 713d 36ee c2bd
00000290: 8d20 a93d a987 143e 1e8b ee3d dbfb 363d
000002a0: 4709 35be 63af c23d 31de 9a3d af8e 8cbe
000002b0: 0f41 c6be a4e1 06be 7bcc fb3d b0b1 5a3d
000002c0: 060f 003e aa9e 66be 6483 04bc 7397 adbd
000002d0: 7775 44bb aa81 7b3e 900f 423e a886 253e
000002e0: bd1e b93d 83fe 64bd cf28 03be 4ed7 263e
000002f0: f09b 7b3d 4d7e 203e e52f b4bd 0190 1fbe
00000300: 48ef 50be 6e2d 04be 9e4e 823d 938e 433e
00000310: 0079 f93b d601 10be 40b8 5abe 100e 62be
00000320: 3f1f 2abe b9ce 103e 19bd 743d 43cd f03c
00000330: 089d a23d 9a51 bcbc a885 54be 214f f4bd
00000340: a2fa 993c 774a ccbc f7b3 5ebe 957c 17be
00000350: 6f84 c33d e14e de3c 01a2 673e 9beb 2a3e
00000360: a870 823e b0e1 58be 7ec8 f43d 773a 9abe
00000370: 472b dabc d2f0 91bd c859 423e c14c 2b3d
00000380: 3ef9 183c f456 5e3e a35c 94bd 80f3 3a3d
00000390: 63ad 5ebe 0c34 a03d 8e4b dfbc 7b0c 0e3e
000003a0: 3631 bd3d a72c 403e 8522 c13d 64c8 3ebe
000003b0: 5ebb d53c ea13 f9bd cd96 3ebe 528d 603e
000003c0: 4715 353c 36ff 123d 1c38 213e 36a5 b03c
000003d0: 0108 e3bd d1c8 14bc 2182 87bd f57f 06be
000003e0: 52d5 0ebe baa7 673c af17 8d3d ca78 9bbc
000003f0: 838e 9a3d c3a5 dfbd e9fa 51be 9d94 efbc
-0.12880145 0.16575253 0.09101685 -0.19502652 0.15884832 -0.13432924 -0.14742659 0.05841406
-0.105407685 0.1317958 0.17944403 0.16538471 0.09212231 0.1885762 0.25983506 -0.03209551
-0.10536434 0.053376485 0.010570859 -0.279564 -0.19644678 0.076049365 -0.3274248 -0.16401924
0.21027622 -0.04939549 0.19630383 0.26189342 -0.16961013 -0.19332783 -0.20823702 0.13215435
0.112732425 0.16690205 -0.041789725 -0.18394472 -0.2508817 -0.19420126 -0.082987554 -0.21598554
-0.2748649 0.087291755 0.08669258 0.06467707 0.15264821 0.088063724 0.18696837 0.03763137
-0.20195882 0.21245088 0.18542702 0.076881886 -0.05362263 -0.028308501 -0.08398222 -0.16001587
0.19631802 -0.044987004 0.045121305 -0.20716275 0.010897076 -0.06967994 0.20463634 -0.010180888
-0.09647183 -0.23036844 -0.22434324 0.005473301 0.20639963 0.042988762 0.042649135 -0.13709426
0.0760151 -0.079505704 -0.25409082 -0.04124151 -0.19654019 0.016429167 -0.03578065 0.23016174
0.009244829 -0.044752926 -0.21770994 0.21084033 -0.03257799 -0.059037223 -0.14601102 -0.08513597
-0.20380063 -0.15323392 -0.14699298 -0.07142334 -0.14745058 0.022732899 -0.2142349 -0.08873244
0.18724605 0.2511743 0.055917535 -0.119081 -0.067181036 -0.18790412 0.0672771 -0.07532559
0.14816952 -0.18007267 0.13849126 -0.2416065 -0.3751918 0.11328385 0.06983536 0.1594065
0.27293137 -0.09285182 -0.17337127 -0.04572199 -0.35313514 0.03889082 -0.2231587 0.049874697
-0.18660341 0.053370263 0.18716063 -0.2961992 0.1396964 -0.045965046 0.06182718 -0.09218937
0.19088517 -0.06826701 0.1321911 -0.015978485 -0.070066355 0.11743844 -0.21486132 -0.05596284
0.10634816 0.039484285 -0.121328935 0.12504873 0.18005091 0.038601458 0.20216942 0.14553836
0.14881563 -0.116677575 -0.14923052 0.22537556 -0.12079067 0.09257782 -0.06027273 0.16793181
0.03189573 0.013782991 0.21193346 -0.13495296 0.12383214 -0.19390585 -0.035162173 -0.0698898
0.046809696 -0.20366679 0.058880385 -0.095180914 0.08258162 0.14504875 0.11647628 0.04467378
-0.1767932 0.095061086 0.07561911 -0.2745261 -0.3872151 -0.13172013 0.12294861 0.053392112
0.12505731 -0.22521463 -0.008087967 -0.08476152 -0.002997724 0.24561182 0.18951249 0.16164649
0.09039066 -0.055906784 -0.12808536 0.1629307 0.06142801 0.1567318 -0.08798198 -0.15582277
-0.20403779 -0.12907955 0.06362651 0.19097356 0.0076133013 -0.140632 -0.21359348 -0.22075677
-0.16613482 0.14141358 0.05975065 0.029394751 0.079401076 -0.02298813 -0.20754111 -0.11929155
0.018796269 -0.024937851 -0.21748339 -0.14793618 0.09546744 0.027137222 0.22620393 0.16691439
0.25476575 -0.21179843 0.11952303 -0.3012273 -0.026631964 -0.07126011 0.18979561 0.041821245
0.009336768 0.21712857 -0.072442316 0.045642376 -0.2174583 0.07822427 -0.027257707 0.13871948
0.09237902 0.18767034 0.09430412 -0.1863113 0.02609032 -0.121620014 -0.18612213 0.2192891
0.011052436 0.03588792 0.1574406 0.021563154 -0.11085511 -0.0090810815 -0.06616617 -0.13134749
-0.13948563 0.01413911 0.06889283 -0.018978495 0.07546713 -0.109202884 -0.20505871 -0.029245669

sequential/dense_1/MatMul f4 [100, 100]
00000000: e560 313d 87f4 043e ce69 163d d5ee 253e
00000010: 5f53 50be 3e38 303c 5302 8abc d99c b0bd
00000020: 00a4 3c3a 2a68 363e 00fb 0c3d 0378 27be
00000030: d665 dbbd 055e 1a3e 6679 44be c62f 673d
00000040: b2ab 1fbe 4bb0 413e e63c 08be 166c 1cbe
00000050: 4ea3 c23d 2a78 bdbd 2600 293e 332d 553c
00000060: b80a b9bc 76e8 7bbd f06e 7f3b 6a63 12be
00000070: 3baa a53d f3e3 82bd e1b3 09be 8220 06be
00000080: 9c38 053e c0de 833b d791 16be 4b83 983d
00000090: 15d0 a6bd 4297 efbd 06b5 093e c36d 02be
000000a0: 66c3 ebbd fc17 393e 7ffc c0bd 630b 223c
000000b0: b378 adbd 675f 1fbe a164 fbbd 8f7d 303e
000000c0: 868d dabd 5697 26bc 5fa6 8e3d cffa 333e
000000d0: 07d4 34be 2e5e c13d 4362 283e 36ac 4dbe
000000e0: 3fff 9fbd 8f1a 10bd 8002 bd3d 58b0 50bd
000000f0: 2b5a fb3c 4c2b 2d3e 46a6 f33d 55c0 323e
00000100: f8ff d4bd 6859 1a3e 7980 c93d 9f35 c33c
00000110: 0322 573c 3a71 e53d 5cc2 c7bc 08ad e63d
00000120: f661 05be ebb4 b43d 2c81 1e3e e461 e4bd
00000130: c1a8 7cbd fd05 92ba e8ee 813d a1b0 00be
00000140: 0c0f 39bd 7d3b 1cbe 5d27 d0bb 8698 353e
00000150: e6b7 98bc a0d2 933c 9d9c 1a3e 893e b83d
00000160: c2f2 15be 0105 01be 3193 09be c69f 2f3e
00000170: 303e 1e3e 4afe 843e d60e 5abc 9bc6 39be
00000180: 50e5 b03d 5226 febc ba04 4bbe c536 dfbd
00000190: 706c 8b3d adb7 cb3d 310d 903e fc29 38bd
000001a0: 426c c8bd 4770 133e 1745 23bc 2d10 d8bd
000001b0: 6c93 e6bd b957 a3be 0e0f 853d c802 4dbd
000001c0: 9203 ed3d 144f 1abe ea03 fabd f7f7 003c
000001d0: d608 01bd bd37 83bd b7a3 8cbe 40b2 39be
000001e0: 3d1d 23be b4fa 2dbc 0929 3ebe e199 4fbe
000001f0: 209d 303c 76dc c53c 96c6 0cbd 6d7e 95be
00000200: 0c78 ae3d 58c0 b4bd 3b3a b1bd bfda 283e
00000210: e034 27bc 503f 6b3d 8761 28be 17c4 fdbd
00000220: 36b5 13ba 6a2d de3d 584c 6bbc 94a8 0ebe
00000230: c5a1 f4bb de7f 183d 1247 4ebd 37ae 95be
00000240: 1506 3f3d 10c3 bb3c 4b76 ddbc c9a4 68be
00000250: 4096 22be cd03 6f3e 5ee6 1ebd bb77 a23d
00000260: 7b6d dc3b 47fb 0f3e 4752 3b3e 7df9 09be
00000270: 9c38 94bd 2719 08bc 9a05 8abe 62e3 2a3e
00000280: d9c3 10be 4d6d 30be b53f 3dbe 534b 153e
00000290: c086 213e 2824 f33d 2c23 053e baca e53d
000002a0: ee04 5a3e 48ac a2bd 3b7c fa3b 0422 12be
000002b0: 20e7 dfbb c1bc 0dbe b485 ea3d 3106 3f3e
000002c0: f19d f3bd 2bd8 843d 38c6 29bd 9da0 4d3e
000002d0: 6b07 893d 55c5 19be 524f 243e 4954 e43d
000002e0: 7712 153d d9ef 06be 55a9 29bd a571 0a3d
000002f0: 07e2 90bd b5c1 38be 0868 07be 7849 253e
00000300: e276 fcbc 4cad 86bd 12f6 cd3c d1b8 1ebe
00000310: 24f7 2f3d 2ce9 b3bd 279c bfbd ffda b3bd
00000320: 07d4 14bd 3f45 053e e9cc a5bd 758d f33d
00000330: c7e3 943d 8cbf abbd 3e3e f4bc 30f0 0ebd
00000340: cad9 263e 816b b63d 8021 293e 8c5a 6e3d
00000350: c51e 413d d085 f5bd 7b94 2ebe 5c3e ca3d
00000360: 0dd7 0c3d f642 fabd 2ff5 b63d 3153 c7bc
00000370: 8b16 dfbd 607a 90be 2cb4 1abe 4c7f 103c
00000380: 9a04 233e 6438 2fbe 6f37 e73c a9cd 7b3c
00000390: 442a 023e b8de 2c3c 359a b83d 9f53 0abe
000003a0: a853 163d e63a 17be a779 28be d53e 6c3d
000003b0: 1679 843b 31b6 00be 08e1 72bd 147d 2abe
000003c0: fed6 543d 7a92 2ebe c42f 02be 4d87 ee3d
000003d0: a0e4 b0bd 30b6 cf3d 1791 9dbd b1a0 19bd
000003e0: 2a9c 173e 61cc c9bb 074f b63c 7b10 8abd
000003f0: ecb2 a9bd 5e99 c53d c382 993d ac3f 11bd
0.043305296 0.12983905 0.036721997 0.16204388 -0.20344304 0.010755597 -0.016846811 -0.08623666
0.0007196069 0.17813173 0.03441906 -0.16354375 -0.10712783 0.15074928 -0.19186935 0.056442045
-0.1559284 0.18914907 -0.13304481 -0.15275607 0.09503804 -0.09251435 0.16503963 0.013011265
-0.022588119 -0.06150099 0.0038976036 -0.14295736 0.080891095 -0.06391134 -0.13447525 -0.13098338
0.13009876 0.0040243566 -0.14704071 0.07446917 -0.08145157 -0.11698772 0.13447961 -0.12737183
-0.11511879 0.18075556 -0.0942316 0.00989041 -0.08470287 -0.15563737 -0.12275053 0.17235397
-0.10671525 -0.010167917 0.069653265 0.17576145 -0.17659007 0.094417915 0.16443734 -0.20085225
-0.07812356 -0.03518158 0.092289925 -0.050949425 0.030682644 0.16911048 0.118969485 0.17456181
-0.10400385 0.15073168 0.09838957 0.02382928 0.013130668 0.11203237 -0.02438467 0.11263472
-0.1302565 0.0882357 0.15478963 -0.11151484 -0.061684374 -0.0011140701 0.06344396 -0.12567379
-0.045180365 -0.15257068 -0.0063523487 0.17733964 -0.018642377 0.01804477 0.15098806 0.08996303
-0.14643386 -0.12599565 -0.13435055 0.17150792 0.1545341 0.25975257 -0.013309201 -0.18142168
0.08637488 -0.031024132 -0.19826022 -0.10899118 0.06807792 0.09947143 0.28135064 -0.044961914
-0.097862735 0.14398299 -0.009965203 -0.1054996 -0.11258587 -0.31902865 0.06497012 -0.05005148
0.115729466 -0.15069228 -0.12207778 0.007871619 -0.031502567 -0.064071156 -0.27468655 -0.18134403
-0.15929122 -0.010618854 -0.18570341 -0.20273544 0.010779649 0.024152976 -0.034369074 -0.29198018
0.08518991 -0.08825749 -0.08653685 0.16489695 -0.0102054775 0.057433426 -0.16443454 -0.12390917
-0.00056346075 0.10848506 -0.0143614635 -0.13931495 -0.0074655735 0.03723132 -0.050360747 -0.29234478
0.04663666 0.022920161 -0.027033946 -0.2271911 -0.15877628 0.23341294 -0.038793914 0.07932993
0.0067269183 0.14060698 0.18293105 -0.13474078 -0.0723736 -0.008306778 -0.269574 0.16688302
-0.1413721 -0.17229195 -0.18481334 0.14579515 0.1577406 0.11872131 0.13001698 0.11220308
0.21290943 -0.07943016 0.007644204 -0.14270788 -0.006832972 -0.13841535 0.11451283 0.18654706
-0.11895359 0.06486543 -0.0414488 0.200808 0.06690868 -0.15016682 0.16045883 0.111488886
0.036394563 -0.13177432 -0.041421253 0.033799786 -0.07074361 -0.18042643 -0.13223279 0.16141307
-0.030818406 -0.065760225 0.02514175 -0.1550019 0.0429603 -0.087847084 -0.093559556 -0.087820046
-0.036335018 0.13014697 -0.08095724 0.11892215 0.072700076 -0.08386144 -0.029814836 -0.03489703
0.16294017 0.089072235 0.16516685 0.05819182 0.047148485 -0.11988413 -0.17048828 0.09875175
0.034384776 -0.12219803 0.08933484 -0.024331661 -0.108929716 -0.28218365 -0.15107793 0.008819412
0.15919724 -0.17111355 0.028224675 0.015368857 0.12711436 0.010551147 0.09013788 -0.13508461
0.036700875 -0.14768562 -0.16452657 0.05767711 0.004042755 -0.125695 -0.059296638 -0.16649276
0.051962845 -0.17048064 -0.12713534 0.116469 -0.08637357 0.101421714 -0.07693689 -0.037506763
0.14805666 -0.006158397 0.02225448 -0.06741425 -0.0828608 0.09648393 0.07495644 -0.035461113

sequential/dense_2/MatMul f4 [100, 100]
00000000: 4cae 3a3e d143 f13d 1fb3 823c 22e2 4dbc
00000010: c065 63bc 53dc bfbd 7475 bebd b2dd fcbc
00000020: cd76 723c 03ea 203e b842 5b3d c0cb 5abe
00000030: 0745 083e aa79 b93d 0c10 4c3d a9bb 04bb
00000040: 7784 c83d cbbb c23d 4863 e43d 113b 983c
00000050: 3e93 953d fa96 4fbd 19be 133c 69c3 b2bd
00000060: b5ab c4bd f761 9a3d 3769 13be 7ef1 123e
00000070: 2839 863d 600f 413d 78c9 49bd bc6e e8bd
00000080: 9eaf 8e3d 3732 213e 3969 063e 0a0b 13be
00000090: 2d79 ddbd 24bd 1c3e 2925 03be a21f b5bd
000000a0: 054b f8bd 4058 b2bd 80c0 ddba 8aba 0dbe
000000b0: 342a 173d cca0 6dbc 9d52 bebd 3e13 e8bd
000000c0: 58b8 d1bc 145b 783d fe0c be3c 24f1 47be
000000d0: 1fe9 143e e809 053e d2f8 8bbe 27ba 133e
000000e0: 7b2d b0bd 78d5 37be b315 70bd b3fa 163d
000000f0: 0aba 45be da61 e8bc 6c57 3ebe 5ae2 0bbc
00000100: 3edd 703d d932 333e 3f44 e43d 69b1 13bb
00000110: f9e4 0bbe 771b c5bd c4ad babd d7b9 1c3e
00000120: 8e98 22bd 7d63 69bb 10e4 eabd 3709 fabd
00000130: 4a0d 91bc 95fd b83d bbff 4ebd e013 a8bc
00000140: 9aeb 0c3e 7ce9 bfb9 ecd5 ccbd 6eca 8b3b
00000150: 52ce 0bbd c0da 8bbd 95f6 0abe b39b d33d
00000160: 39a6 0b3e 7241 003e c626 d8bd 51f1 8ebd
00000170: b139 fabd 31d9 88be a050 40bb e6c0 08be
00000180: 933d 203d 086b 3fbe b8f4 953d d350 aebc
00000190: 0162 90bd 9a05 093e 5de0 403e 16da c73c
000001a0: 49ab e43d 933d 1fbe a527 fa3c 9d9e 8d3d
000001b0: aa7c c7bd 902d af3c 8e74 20be 66e0 8f3c
000001c0: cd34 11bd 646a c63d 0fec 613d 0544 bd3b
000001d0: b180 803d a521 343d 7463 52bd 4966 7fbd
000001e0: dd57 0b3e 5b4b 9dbd 7579 e6bd c1b4 4fbe
000001f0: 4c62 d5bd 139d 36be 2fe3 11be 1528 0d3e
00000200: 907a fb3d 7107 f1bd 9d90 10be cba1 2a3d
00000210: 077e fd3c a412 113e f546 b93d 723d 813b
00000220: 7448 18be 27f9 81bd b8fc 6abd 4005 c1bd
00000230: 2a82 3dbe ae77 553d a036 a6bd 6704 253e
00000240: 6efb 24be 7bcf 04be 2dc3 053e 08ca 6b3d
00000250: 2606 12be b39c c63d aa01 223d 0f84 273d
00000260: 76b6 06be 9466 0d3d 0a1b 8f3d 4a35 2b3d
00000270: a203 18be 61f0 4dbd ac0e fe3d 6d30 fbbb
00000280: 22dc dcbd 274c 1abe 43f6 c23d 4216 1dbd
00000290: 9bb2 68be d500 01be cd30 92bd 979b 523d
000002a0: 4403 41bd e33b 9d3c a1e9 c73c 0255 5ebd
000002b0: 750a c53d 0075 a63c 4c53 483d c932 aebd
000002c0: a376 17be 4344 2d3e 2419 33be 40ca 92bd
000002d0: 0d6b a43d 8014 393e 8d6d 723d f91d 503d
000002e0: 8871 8dbb 2cc6 a83d 560e bd3d f5f5 883d
000002f0: 1f6b f7bd c5e8 eebd 648c 05bb 2a16 c33b
00000300: ae31 a93d d1f5 fc3d 781c abbd f3a9 20be
00000310: 3c8a 183e 4c43 4f3e c6da 14be 2ba5 2ebe
00000320: 7f6b eebd 1883 a3bd efe2 f7bd 4fd6 13be
00000330: 2cbd f53b 0128 35bd 76de df3d cf69 043e
00000340: 8811 59be 9444 38bd 6203 153a 0110 173e
00000350: c167 763d 90b8 62bc b1dd 2bbd 0330 2b3d
00000360: 8cce 4d3d 71f9 0e3c 12b4 88be bb71 373d
00000370: e3f2 3fbe a82b 53bd 0035 a0bd 22db 063e
00000380: 90e3 7b3c 2fa4 09be 860e 333e 3ecb 05be
00000390: 34e3 01be 1cff 873d 07db 40be 9f79 ad3d
000003a0: 4684 37ba 82a2 ca3d 15c8 0bbe 5d7e 5f3d
000003b0: bd24 71bd 8c28 d4bd 4a1c e0bd 408e 1bbe
000003c0: adb6 883e 47a3 7b3d f229 1e3e 6351 3bbe
000003d0: c1ca 35bd 34a5 d7bd b9f3 8bbb 25fb 16be
000003e0: 7889 b8bd 15f0 5e3d 530c d13d 3f0f c43d
000003f0: 4c11 d93d 9429 b83d 38bb 193c 51a7 86be
0.18230551 0.11780513 0.015954552 -0.012566121 -0.01387924 -0.093681954 -0.09299746 -0.030867431
0.014798832 0.15714268 0.053530425 -0.21366787 0.13307582 0.09056409 0.04981999 -0.0020253456
0.09790891 0.09508475 0.11151749 0.018582853 0.07303475 -0.05068109 0.009017491 -0.08728678
-0.09603063 0.075382166 -0.14395605 0.14349934 0.065538704 0.047133803 -0.0492644 -0.11349246
0.0696709 0.15741812 0.13126077 -0.1435968 -0.10814128 0.15306526 -0.12807144 -0.08843924
-0.12123684 -0.087082386 -0.0016918331 -0.1384069 0.036905482 -0.014503669 -0.09293101 -0.11331795
-0.025600597 0.060633734 0.023199555 -0.19525582 0.14542054 0.1299206 -0.27338272 0.1442648
-0.08602425 -0.17952526 -0.058614444 0.03686018 -0.1930925 -0.028366972 -0.18588036 -0.008537853
0.058804743 0.17499866 0.111458294 -0.0022536165 -0.13661565 -0.09624379 -0.091151744 0.15305267
-0.03969627 -0.0035612278 -0.11469281 -0.12208789 -0.017706532 0.09032742 -0.050536852 -0.02051729
0.1376175 -0.00036604318 -0.1000174 0.004266075 -0.03413231 -0.068288326 -0.13570626 0.10332432
0.13637628 0.12524965 -0.105542704 -0.06979621 -0.12218035 -0.26728204 -0.0029344931 -0.13354835
0.03912122 -0.18693173 0.07322067 -0.021278774 -0.07049943 0.13381043 0.18835588 0.024395984
0.111654826 -0.15550832 0.030536482 0.06915019 -0.09740575 0.02138403 -0.15669462 0.017563056
-0.035450745 0.09688261 0.055156764 0.005775931 0.06274546 0.0439774 -0.051364377 -0.062353406
0.13607736 -0.076803885 -0.11253635 -0.20283796 -0.10419139 -0.17833357 -0.1424682 0.13784821
0.12279236 -0.117689975 -0.14117666 0.041658204 0.030943884 0.14167267 0.09046737 0.0039440924
-0.14871389 -0.0634635 -0.057369918 -0.094248295 -0.18506685 0.05211609 -0.08115888 0.1611496
-0.16111538 -0.12969773 0.13062735 0.05756572 -0.14260158 0.09697857 0.03955237 0.040897425
-0.13155541 0.034521654 0.06987579 0.041798867 -0.14845136 -0.05027807 0.12405142 -0.007665685
-0.107841745 -0.15068112 0.09519627 -0.038351305 -0.22724383 -0.12597974 -0.07138214 0.051417913
-0.047122255 0.019193595 0.024403395 -0.05428029 0.09621135 0.020319462 0.048907563 -0.0850578
-0.1479135 0.16920571 -0.17490059 -0.071674824 0.08028231 0.18074226 0.059186507 0.050809834
-0.0043165125 0.08240923 0.0923125 0.066875376 -0.120809786 -0.11665491 -0.0020377869 0.00595357
0.08261429 0.12351573 -0.08355039 -0.1568983 0.14896482 0.20240515 -0.1453658 -0.17055194
-0.11641597 -0.079839885 -0.12103831 -0.14437221 0.0074993577 -0.044227604 0.10931103 0.12930988
-0.21198094 -0.044987276 0.0005684403 0.14752199 0.06015754 -0.013837948 -0.04195947 0.041793834
0.050245807 0.008726464 -0.26699883 0.044786196 -0.18744998 -0.051555306 -0.07822609 0.1316953
0.015374079 -0.13441537 0.17486009 -0.13065812 -0.12684327 0.06640455 -0.18833552 0.08470463
-0.0007000606 0.09894277 -0.13650544 0.05456387 -0.058872927 -0.10359296 -0.10942896 -0.15190983
0.2670187 0.06143501 0.15445688 -0.18292765 -0.044382814 -0.10529557 -0.0042709974 -0.14744242
-0.09010595 0.05442818 0.10207429 0.095732205 0.10599002 0.089923054 0.009383015 -0.26299527

sequential/dense_3/MatMul f4 [50, 100]
00000000: a98b 69bd 079d b3bd dcf4 50be e6fe 21bd
00000010: 87fb f33d ecfc 81bd b17d 65bd 22d4 efbd
00000020: ee66 3b3d 1ad0 0ebe 6efd a7bc 232c e53d
00000030: e237 553d e756 2b3e e4d5 f23d 83b2 fe3c
00000040: b536 043d 36f0 11be d212 75bd 4f42 373e
00000050: 71ad b8bd 23cf 27be dda6 223e 7e92 57bd
00000060: bfae 653d c9d0 98be 19f2 f5bd 8897 cf3d
00000070: 25a9 a4bc d592 5bbe e9c8 bdbd 4f9f 593d
00000080: 0dd2 853d ea2c 453e faa2 0f3e 2f57 423d
00000090: cf3b 1bbe ae4c 69bd f5b7 67bd 4a99 6fbc
000000a0: 3092 11be afaa 0d3e 3d14 41be 750b a43e
000000b0: 7d0f 21be e34d ffbd 8df3 66bc ae0b 56bd
000000c0: 104b 9f3d a683 d8bc 32d5 b63d a2b0 623d
000000d0: 34fb 52bd 6344 233e 14c2 233e 4992 f7bd
000000e0: 6b24 40be 9777 cf3d ce07 49be 4c65 093d
000000f0: 8434 40be 95fa 373e e157 a33d 9960 a43d
00000100: 20c2 a23d 2cb2 133e e711 77bc 589f 94bc
00000110: 32ce 8c3d 0011 dcbb 24c2 83bd bbe0 2ebd
00000120: f302 e6bd c61f 523d 8487 fa3c 61ae 61be
00000130: 91fc cebc a338 f03d 2bad 323e d8fd 453e
00000140: 0731 2b3d ef46 eabd 1f9f e53d 819f 1fbe
00000150: d863 233e 305f 21be e81e 3ebd 93ca 22be
00000160: 4198 fc3c 1a66 2f3d 79a9 163c 9cd4 aa3d
00000170: e1a0 413d f277 973d e91a 9d3c 758b f63d
00000180: 1735 7cbd 1bde 2fbe 8504 1bbe ed4d 9d3b
00000190: 1385 7f3e a7cd 953d 37e1 bb3d 4dff 7dbd
000001a0: c462 2b3e 3173 72bd a582 433e c386 9abd
000001b0: e756 a53c 445a ec3c c377 523d 1efa 5bbc
000001c0: d9d4 663d 2fbf fcbd eba5 dabd 7b43 cc3d
000001d0: cb9f e63d c22b 303d 41f0 92bd e43e 81bd
000001e0: 95b1 b5bd e1c6 fb3d 863e 1a3e de4f 333e
000001f0: 7ed5 833e cc46 863e dcd5 38bd a03c 453e
00000200: d502 403c 6bfa 42be 07ed 083d 6d6a bb3c
00000210: af20 e0bd 9bcd 4fbd 8b58 863d a093 a7bb
00000220: 2481 f0bd 13bf 4abb 4b87 adbd a875 30bc
00000230: 5627 413e e315 26be 53d9 debc c51d 6cbe
00000240: e811 0d3e ec88 ce3d 8b00 eebd 603f 2cbd
00000250: cf48 1a3c 85d4 c63e 963a 3f3e 5b34 07be
00000260: b38e 21be 6b84 fd3d edeb 0b3e 6175 0cbe
00000270: d003 733e 9e46 223e e6c6 16bd 86be c5bd
00000280: 8e28 623e 45ea 113e 6077 123e 3f1d 8abd
00000290: 22a9 27be d466 8d3e 9a3e a33d 04d5 e2bd
000002a0: e2ff 173e 5f8b 793e 7ba4 523e 37ae 133d
000002b0: ea05 e43c 84ad 893d bcbc 0abe dde2 b23d
000002c0: 8992 1fbe 27ee c23c 1572 41be aa63 babd
000002d0: 1f48 46be b463 f5bd 32d4 86bd 9479 1cbe
000002e0: 7ee4 cebd 932d c0bd c07a 533d 42f3 563e
000002f0: 9451 7cbd 6045 b73d f8e0 d43d 448c 10bd
00000300: 9510 5c3e 314b 473e 84da 36bd 0b51 b13d
00000310: 816c 043e de54 583e a9d5 5c3e 41d0 9f3c
00000320: 775c bc3d 2c08 ba3c d743 51be cadd 1e3e
00000330: b872 583d 31e7 4fbe 7391 363e 0cb6 dc3d
00000340: 5e1d 4ebd 7c35 dfbc b508 d93d 362e 723d
00000350: c85c a5bb b032 533e d023 20be 0bdc 1a3e
00000360: 1bfb ebbc f065 153e 9e28 5d3e c04b 16be
00000370: 2cb4 57bd 4121 8f3c f126 f33d f32a 5f3e
00000380: 6f8c a1bd aa5b 5f3e 6b11 f93d cd15 ce3d
00000390: 1306 34be 25d9 2ebe 2f58 c1bd 303e 623e
000003a0: 0e43 54bd a7e4 473e 363e 17be 9b16 1f3e
000003b0: 5340 5c3e f979 843e 6998 583e 3f99 523e
000003c0: 7926 77bc 4ea9 023e 3fab 0bbe 01ba 31be
000003d0: e360 463c d59d 89bd 189c 1a3e 945e 71be
000003e0: 9ef9 0ebd 519a 8f3e da22 fdba 7d31 5abe
000003f0: d907 243e 99a1 803d c818 273d 5883 05be
-0.057017956 -0.08770185 -0.20405906 -0.03954973 0.119132094 -0.06347069 -0.05602807 -0.11710383
0.04575246 -0.13946572 -0.020506587 0.11190059 0.052055247 0.1673237 0.11857203 0.03109098
0.032278735 -0.1425179 -0.0598324 0.17896388 -0.09017456 -0.1638761 0.15883966 -0.05262994
0.056074854 -0.2984679 -0.12009067 0.10136324 -0.020100186 -0.2144273 -0.09266836 0.053130444
0.06534205 0.19255415 0.14027014 0.047446426 -0.15159534 -0.056957893 -0.05657192 -0.014623949
-0.14215922 0.13834642 -0.18855377 0.3203999 -0.15728565 -0.124660276 -0.014096153 -0.052257232
0.07777989 -0.026429962 0.089273825 0.05534423 -0.051509097 0.15944056 0.15992004 -0.120884486
-0.18763892 0.10130232 -0.19631884 0.03354387 -0.18770033 0.17966683 0.07975746 0.08026237
0.07947183 0.14423436 -0.015079952 -0.018142387 0.06875266 -0.0067158937 -0.06433514 -0.04269479
-0.11231031 0.051299833 0.030582197 -0.22039177 -0.025266917 0.117295526 0.17448871 0.19335115
0.041794803 -0.11439311 0.112119906 -0.1558819 0.15956056 -0.15758967 -0.046416193 -0.15897588
0.03083432 0.04282198 0.009195679 0.08341333 0.047272567 0.07395925 0.01917787 0.12038318
-0.061574068 -0.1717457 -0.15138443 0.0048005492 0.24953108 0.07314616 0.09173816 -0.062011052
0.16736895 -0.059191886 0.19092806 -0.07545235 0.02018304 0.028851636 0.051383745 -0.013426332
0.05635533 -0.12341153 -0.106761776 0.099738084 0.11260947 0.04301048 -0.07174731 -0.063108236
-0.08871762 0.122937925 0.15062913 0.17510936 0.2574882 0.2622589 -0.045125827 0.19261408
0.011719425 -0.1904084 0.033429172 0.022877896 -0.10943734 -0.05073319 0.06559857 -0.005114034
-0.117433816 -0.0030936643 -0.08473071 -0.010770239 0.18862662 -0.16219287 -0.027203238 -0.23058231
0.13776362 0.100847095 -0.11621197 -0.042052627 0.009416773 0.38834015 0.18674693 -0.13203566
-0.15777092 0.12378772 0.13664217 -0.13716651 0.23731923 0.15847251 -0.036810778 -0.0965548
0.22085783 0.14249523 0.1430335 -0.067438595 -0.16373113 0.27617514 0.07970925 -0.11075786
0.14843705 0.24369572 0.20570557 0.036054816 0.027834851 0.067225486 -0.13548559 0.08734677
-0.15583242 0.0237952 -0.18891175 -0.09101041 -0.1936345 -0.119819075 -0.06583442 -0.15280753
-0.10102175 -0.093836926 0.051630735 0.20991233 -0.061601236 0.08948779 0.10394472 -0.035290018
0.214907 0.19462277 -0.044641986 0.08658036 0.12932016 0.21126124 0.2156588 0.019508483
0.09197324 0.022708975 -0.20436035 0.15514293 0.05284378 -0.20303036 0.17828922 0.1077691
-0.050320975 -0.027247183 0.10597364 0.0591261 -0.005046461 0.20624804 -0.15638661 0.15123002
-0.02880626 0.14589667 0.21597525 -0.14677334 -0.05266206 0.017471911 0.11872662 0.21793728
-0.07888114 0.21812311 0.12161525 0.10062752 -0.17580442 -0.17075022 -0.09440648 0.22094035
-0.05182176 0.19520818 -0.14769825 0.15535967 0.21508913 0.25874308 0.2115189 0.20566271
-0.015084856 0.12759897 -0.13639544 -0.17356111 0.0121080605 -0.06719557 0.15098608 -0.23571235
-0.034906022 0.28047422 -0.0019312755 -0.21307941 0.16018619 0.06280822 0.040795118 -0.13038385

sequential/dense_4/MatMul f4 [40, 50]
00000000: 8935 01bd 6b5d 083e c17b 6f3e e4b1 d23d
00000010: 0dd3 09be dd2b ca3d 0cb4 0b3e 799d 78bd
00000020: ef94 f23d 8df8 ef3d 869f c33d 0647 00be
00000030: 702b 82bd 522e cdbc a15e 88bc 3a96 66be
00000040: 0e5a 9eba aef3 383e ccda 41be 3228 123e
00000050: 60c7 853e 80a1 a33b 1514 89bd a5ba b7bd
00000060: 9f73 dc3d 9300 2f3e 6a6a 063e 3ebd 3f3e
00000070: 7dc7 91be 0de3 773d 1243 e7bd 099e 09be
00000080: 2036 6d3b e533 573e 6a3a 183e 1dde ae3d
00000090: 5099 9f3e 8833 6d3d b35b 083e b4d2 c63e
000000a0: 0d76 d6bc ea33 81bd 3f05 553b 0a68 17be
000000b0: af38 15be c5bd fbbd 2174 5fbe 661d e2bd
000000c0: 5a84 443e f73b 4bbe 5174 083c 5ab1 473e
000000d0: 87f1 073e 58df 0b3d bb71 75bd 18d5 f4bd
000000e0: cc95 65be 1362 163d dce5 453e f8b7 f6bd
000000f0: 1d42 5fbc 6bf9 473e 0c75 dcbd be46 28be
00000100: b00c 673e ebd8 19bd 7b60 ae3d 040f 7abd
00000110: 75af 3e3e 632e 113e 7628 3d3e d18d 303c
00000120: 0b3a 243e 400d f3bb 00b5 38be 2bbb ce3d
00000130: cf3e 0f3e ac14 92be d1ed 60be 205b 083e
00000140: e830 463d 4b6a 5ebd 6916 88bd e191 c7bd
00000150: 6cdb eb3b f54f 833d 2979 c1bd 53d6 9dbd
00000160: 956f c63d bb9c ae3d b376 223e b5f3 2ebc
00000170: 6eb2 103e 7700 ef3c ac6e 343d adb8 873e
00000180: 430c 9ebe bfa9 833e 2d2a 6ebd 030e 793e
00000190: 547c 2abe c464 08be 82bd 53be 123f 703e
000001a0: 8fc8 6bbe 68c5 85bd 5847 39be 6dc4 35be
000001b0: b14d dcbb 92bd 67bd b35b 4dbe 14c6 52bd
000001c0: ae69 963d be09 5fbd 05c2 29be ce62 bbbd
000001d0: b758 20be d979 c0bd d0da 84be 1e0e 7fbe
000001e0: 6324 db3c 5834 6a3e 8722 93bd f5ca fe3d
000001f0: 569e c23d 0e01 853d a48a 8f3d 1c7c 0fbe
00000200: 1130 c73d 4a20 9a3e 1a9b 393e d83a 54bd
00000210: e52d 363e f0b3 c7bd 1cbf 303e 8b7a 3cbe
00000220: 52c3 19bd 02bb ae3e e372 95bd 5d3a 003d
00000230: 4087 103e 517a 873d 9a64 20be 2942 403e
00000240: c61b 833d ee10 31bc e23d 0cbe 07fc 403e
00000250: e213 053e 4575 ba3d 407d 1fbe 606e bebd
00000260: de56 a13e 1a5d f4bd c6fe 02be 016e 483d
00000270: 30d6 5c3d ad17 e8bd 87d6 6d3e 49ae 5fbc
00000280: 3142 30be 7423 6d3c 8dd6 68be 9e30 0bbd
00000290: 0c2b 433e b012 7abd fbb4 22be cf43 13be
000002a0: c201 0ebe 6b8b b13e bb3e 053e 4094 a63d
000002b0: 18ab 3d3e c4a2 aabd 752d ddbd eb4a 1cbc
000002c0: b199 363e 32d9 cbbb 97ef 62be caea f5bd
000002d0: 4c0a 31bd 931a 7bbe b4b1 a3bd 93ea 683e
000002e0: 0e57 e83c 9d4d 99bd a478 a53e e8b5 a4bc
000002f0: 0df3 8b3e db8e b83e 492c 4ebb 8b4b 3d3d
00000300: ab8c 493d 2436 d5bd 88a7 703e c430 19bd
00000310: 0f74 973e e01d 8dbe e2f1 3ebe d678 c3bc
00000320: 1f7a 31be 9e47 adbd 0d33 373e dced cfbd
00000330: 0f24 603e 0461 92bd 1af4 c2bd 1117 a0bd
00000340: 855d 163d a283 52be cebb 293e 86f2 ba3d
00000350: cdb6 a33d 4cfe 443e e8f8 743d e597 133d
00000360: 2cea 8abd 3a29 77be 4824 10be dd44 413e
00000370: c82f 553e 9855 283e 7a6f 8b3d 5519 d7bd
00000380: 6207 8ebe 65f9 1c3e 2535 b9bd 1286 54be
00000390: da9a 5b3d 7b5d 9bbd ee94 21be 5ae6 aa3c
000003a0: 7a43 5dbe d0a9 e0bd 60c8 4cbe 0f65 18be
000003b0: eb73 98bd 03d8 543e 1279 0cbe f94f 233e
000003c0: 4aea 15be c0e2 123b fdb8 bc3d 8e51 4f3e
000003d0: 4560 2cbe be0e 8c3d f843 08be 4cd5 7f3b
000003e0: 030b 073e e751 453e 6e78 813e d4f4 8f3e
000003f0: cf1b 613e 8c0a 81bd e84e 3b3e 4781 c6bd
-0.031545196 0.13316886 0.23387052 0.10287836 -0.13459416 0.098716475 0.13642901 -0.060697053
0.11844813 0.11717329 0.09551911 -0.12527093 -0.06355941 -0.025046501 -0.016646685 -0.22518244
-0.0012081282 0.18061706 -0.1893112 0.14273146 0.26128674 0.0049936175 -0.066932835 -0.089711465
0.107642405 0.17090063 0.13126531 0.18724534 -0.2847251 0.060519267 -0.112920895 -0.13439192
0.003619559 0.2101589 0.14866033 0.085384585 0.31171656 0.057910472 0.1331623 0.3883263
-0.026179338 -0.0630873 0.0032504348 -0.14785782 -0.14572404 -0.12292055 -0.21821643 -0.110407636
0.19191113 -0.19847094 0.008328513 0.19501248 0.13275729 0.034148544 -0.059922915 -0.11954707
-0.22420424 0.036714625 0.19325966 -0.12046808 -0.0136266025 0.19528739 -0.107645124 -0.16433236
0.22563434 -0.037560385 0.08514496 -0.061049476 0.18621619 0.14177851 0.18472466 0.010775999
0.16037767 -0.007417351 -0.18037796 0.10094293 0.13988803 -0.28531396 -0.2196572 0.13316011
0.048386484 -0.054300588 -0.066448994 -0.09744621 0.007197788 0.06411735 -0.094469376 -0.07706895
0.09689251 0.08525988 0.15865593 -0.0106782215 0.14130566 0.029175026 0.044050857 0.26508084
-0.3086873 0.25715443 -0.05814569 0.24321751 -0.1664899 -0.13319689 -0.2067776 0.2346156
-0.23025726 -0.06531793 -0.18093622 -0.17750712 -0.0067231287 -0.056577273 -0.20054512 -0.051458433
0.073443756 -0.05445265 -0.16577919 -0.09149705 -0.15658842 -0.093982406 -0.2594819 -0.24907729
0.026750749 0.2287153 -0.0718432 0.12441055 0.095028564 0.06494342 0.070088655 -0.14012188
0.09725965 0.3010276 0.18125573 -0.05181393 0.17790945 -0.09751117 0.17260402 -0.18406121
-0.037539788 0.3412705 -0.072973035 0.03130566 0.14114094 0.06615127 -0.15663376 0.18775238
0.06401782 -0.010807259 -0.13695481 0.18846141 0.12995866 0.09104399 -0.15575123 -0.09298396
0.31511587 -0.1193182 -0.12792501 0.048933033 0.053915203 -0.11332641 0.23226367 -0.013652393
-0.1721275 0.014473785 -0.22738095 -0.03398191 0.1905939 -0.061052978 -0.15889351 -0.14381336
-0.13867858 0.3467668 0.13012211 0.08133745 0.18522298 -0.08331826 -0.10799686 -0.009539346
0.17832066 -0.00622096 -0.22161709 -0.12007673 -0.04322271 -0.24521856 -0.079928786 0.22745733
0.028361823 -0.07485507 0.32318604 -0.02010627 0.2733387 0.3604649 -0.0031459501 0.04621462
0.049206417 -0.10410717 0.23501408 -0.037400022 0.29580733 -0.27561855 -0.18646958 -0.02386133
-0.17331742 -0.084609255 0.17890568 -0.1015279 0.21888755 -0.071474105 -0.09519215 -0.078168996
0.03671028 -0.20558026 0.16575548 0.09128289 0.07993851 0.19237632 0.059807688 0.03603353
-0.06782946 -0.2413682 -0.1407634 0.18873926 0.20819008 0.16438901 0.06808372 -0.105028786
-0.27740008 0.15329511 -0.0904334 -0.20754269 0.053614475 -0.07586189 -0.15779468 0.020861793
-0.21607772 -0.10969889 -0.19998312 -0.14882301 -0.074439846 0.20785527 -0.1371806 0.15948476
-0.14640155 0.0022412986 0.09214971 0.20245954 -0.16833599 0.06838749 -0.13307178 0.0039037047
0.13187794 0.19269525 0.25287193 0.28116477 0.21983264 -0.0630084 0.18291819 -0.096926264

sequential/dense_5/MatMul f4 [2, 40]
00000000: 1ed9 0d3d 3abc b2bc 472a b1be f7b7 c93e
00000010: 7d38 a33e ea33 3e3e f052 4fbe 82fd 423d
00000020: 7e48 bd3e 0bac 55bd 6cd7 833e cd32 9a3e
00000030: 8c5f f6bd c765 273d 7e82 d63e 016f 3a3e
00000040: ac73 e3bd 3f9b 92be ede2 36bd 72cf e0be
00000050: f52b c13e 4112 ab3e fa82 d8be d644 f3bd
00000060: 9438 d53e 9455 a2be 7a43 51bd 295e a13e
00000070: 3c4f a13e 5fa9 f0bd e3ed bcbc 2147 50be
00000080: 37a5 62bb 162e 033e 3a1e d53e 5ba1 b13e
00000090: f4e6 ad3e bdcf a7be b33c 363e 30d1 09bd
000000a0: 7d30 bfbc 44dd 2d37 c74b b1bc 7617 9d3d
000000b0: e9fd 303e 4dc9 fabd 9dc5 92be 528e 19bd
000000c0: 8a25 a83b b197 b6be 7d83 2bbb d95c eebd
000000d0: 71fd bcbe b0c7 8ebe b4f5 7d3e f647 d4be
000000e0: 3569 3c3d 566e 523e 4059 593e 5fe5 2b3e
000000f0: d317 d8be 3982 95be 1bb6 4f3e cb92 133e
00000100: 2911 c0bd 8970 b43e 27c3 543e 2340 d3be
00000110: 48d1 acbe 819d ecbe 3922 7e3e 87b0 93bc
00000120: d32a 7bbe b239 debe 2e99 8bbc ec07 10bd
00000130: 6a5e 87be 470b b73e e234 e1bc 860b 83be
0.034630887 -0.021818269 -0.34602568 0.39398167 0.31879035 0.18574491 -0.20246482 0.047605045
0.3696937 -0.052166026 0.2575029 0.30116883 -0.12029943 0.040868547 0.41896433 0.18206407
-0.11106047 -0.28634068 -0.044650007 -0.43908268 0.3772885 0.33412364 -0.42287427 -0.11878364
0.41644728 -0.31705916 -0.05108974 0.3151715 0.31505764 -0.11751055 -0.023062652 -0.20339634
-0.003458334 0.12810549 0.41624624 0.34693417 0.33965266 -0.3277568 0.17796592 -0.033646762
-0.02333855 1.0363121e-05 -0.021642579 0.076704904 0.17284359 -0.12245426 -0.28666392 -0.037489243
0.005131428 -0.35662606 -0.0026170902 -0.11638803 -0.3691211 -0.27886724 0.2480076 -0.41461152
0.04599877 0.20549902 0.21225452 0.16786717 -0.42205676 -0.29200915 0.20284311 0.14411466
-0.09378273 0.35242108 0.2077757 -0.4125987 -0.3375342 -0.46213916 0.24817742 -0.01802851
-0.24528055 -0.43403393 -0.017040815 -0.035163805 -0.2643922 0.3575079 -0.027491037 -0.2559473
